cfd_flutter/.dart_tool/chrome-device/Default/optimization_guide_prediction_model_downloads/71b77566-a27e-4adf-96bb-40fb11557acf/model.tflite (tflite, 67216 bytes, 5 tensors)

dnn/hiddenlayer_1/bias/part_0 f4 [64]
0	0xbd234b69	-0.03986684
1	0xbdd50c56	-0.104027435
2	0x3d244c11	0.040111605
3	0x3d06555c	0.03279625
4	0x3dd39bb3	0.10332432
5	0xbcf0bf76	-0.02938817
6	0x3d6f8922	0.05848039
7	0x3b88647a	0.0041623684
8	0xbd120c18	-0.035656065
9	0x3dcec4b6	0.100961134
10	0xbab6aba8	-0.0013936656
11	0x3c0168d1	0.007898525
12	0xbd0a37ee	-0.033744745
13	0xbce17bbc	-0.027524821
14	0x3dd8ab57	0.105795555
15	0x3c2f8f61	0.010715337
16	0x3d904206	0.07043843
17	0x3c73f833	0.014890718
18	0xbc6e868c	-0.014558446
19	0x3bc198a6	0.0059080897
20	0xbb545baf	-0.003240328
21	0x3d3c8d61	0.046033267
22	0x3dd3a7a0	0.10334706
23	0x3d259c40	0.040432215
24	0xbcb2f1a2	-0.021843735
25	0x3898858b	7.272799e-05
26	0xbd83dc3c	-0.06438491
27	0xbcc42330	-0.02394256
28	0xbe38ed3a	-0.18059245
29	0x3d3b4371	0.045718614
30	0xbce2d642	-0.027690057
31	0xbd0793fc	-0.033100113
32	0xbd338ee6	-0.04383745
33	0xbc88652c	-0.016649805
34	0xbc4adcc3	-0.012381735
35	0xbdb3c85b	-0.08778449
36	0x3df03692	0.117291585
37	0xbdca3c3b	-0.09874769
38	0xbc67ca15	-0.014147301
39	0x3ba9f617	0.005186807
40	0x3ba3dbad	0.0050005526
41	0xbcfa3353	-0.030542051
42	0xbd30d88f	-0.043175276
43	0x3cfc202d	0.030777061
44	0x3d5c4bf9	0.05378339
45	0xbcdd4d88	-0.027014509
46	0xbd46ed60	-0.048566222
47	0xbd0028d4	-0.031288937
48	0xbcd19b1d	-0.02558666
49	0xbc2356ff	-0.009969472
50	0x3b8e84d2	0.0043493295
51	0x3d42ba27	0.04754081
52	0xba8a9a72	-0.0010574593
53	0xbd001540	-0.031270266
54	0x3dccaecb	0.099942766
55	0x3d288fe5	0.041152854
56	0x3d1312cb	0.035906594
57	0x3a90eaa2	0.0011056254
58	0xbd03c44f	-0.032169636
59	0x3df2161c	0.11820623
60	0x3d29d19d	0.04145967
61	0x3d3c8858	0.046028465
62	0xbcc61209	-0.024178522
63	0x3d158e29	0.036512528

dnn/hiddenlayer_0/bias/part_0 f4 [128]
0	0xbdb09cbc	-0.08623645
1	0xbd85a7f6	-0.06526177
2	0xbd4c9fc9	-0.04995707
3	0x3da5eed7	0.08102196
4	0xbc467a84	-0.012114171
5	0xbd0c39bc	-0.034234747
6	0x3da13dab	0.0787309
7	0xbd86d57f	-0.0658369
8	0xbcda5386	-0.026651155
9	0xbd0c79dd	-0.034295905
10	0xbde2c885	-0.11073402
11	0xbd91a0ac	-0.07110724
12	0xbd2369fe	-0.039896004
13	0xbd10d838	-0.035362452
14	0xbc66de3d	-0.014091072
15	0xbbbce6b3	-0.005764806
16	0xbcfd2a8c	-0.030904077
17	0x3c818613	0.015811002
18	0x3cf3ca03	0.029759413
19	0xbce58325	-0.028016636
20	0xbb381033	-0.0028085827
21	0xbd4d14f8	-0.050068825
22	0xbb5bb9e6	-0.0033527552
23	0x3d9f9483	0.07791998
24	0xbce70972	-0.028202746
25	0xbc51285b	-0.012765969
26	0xbd9adbb3	-0.075614356
27	0x3c3c9681	0.011510492
28	0x3c9529c8	0.0182084
29	0x3df5255e	0.11970018
30	0xbd8f8d4a	-0.070093706
31	0x3c6a9468	0.014317609
32	0x3d565f17	0.05233678
33	0x3d06c975	0.03290697
34	0x3b981c48	0.0046420433
35	0xbdee8fcb	-0.1164852
36	0xbdadc6c7	-0.084851794
37	0x3d940c65	0.072289266
38	0xbd4e9a79	-0.050440285
39	0x3ddd022b	0.10791429
40	0x3c1ffe13	0.009765166
41	0xbdc02f14	-0.093839794
42	0xbd1e37c3	-0.038627397
43	0x3d47f81a	0.048820592
44	0xbd804391	-0.06262887
45	0x3c455b42	0.012045683
46	0xbcd2310b	-0.025658151
47	0x3d0b5f6c	0.03402655
48	0x3c15255b	0.0091031445
49	0xb7b7e79e	-2.1923155e-05
50	0xbbf30180	-0.0074159503
51	0x3d49a622	0.049230702
52	0x3d1d74b7	0.038441386
53	0xba655cca	-0.00087494834
54	0xbd4bb63a	-0.04973433
55	0xbd212e9a	-0.039351083
56	0x3da34e67	0.079739384
57	0xbbd63253	-0.006536761
58	0x3ca886ca	0.020572085
59	0xbd37e6b9	-0.04489777
60	0x3d23b72d	0.039969612
61	0x3db92cbf	0.09041738
62	0x3bae7009	0.005323414
63	0x3c95ad0a	0.018270988
64	0x3d2d66d1	0.04233438
65	0x3cee8228	0.029114798
66	0x3c9d6a2d	0.019215668
67	0xbb86b189	-0.0041105193
68	0xbc96f49d	-0.018427188
69	0xbdbc70a8	-0.09201175
70	0xbe1f932f	-0.1558349
71	0x3d673814	0.056449965
72	0xbd9ea980	-0.07747173
73	0xbda7add5	-0.08187453
74	0x3e0a43ed	0.13502474
75	0x3c99870a	0.01874115
76	0xb9e80c4a	-0.00044259644
77	0x3d16c153	0.036805462
78	0xbd3269bf	-0.04355788
79	0xbd6ffba4	-0.058589593
80	0xbe03c6cc	-0.12868804
81	0x3d855753	0.065107964
82	0xbdc01fd4	-0.09381071
83	0x3d871a17	0.06596773
84	0x3d74a6ba	0.059729315
85	0x3d8624d1	0.06549991
86	0xbd1f977f	-0.038962837
87	0x3dd1f770	0.10252273
88	0xbe0f1b82	-0.13975337
89	0xbd2891e7	-0.04115477
90	0x3ce12121	0.027481617
91	0xbd474c00	-0.048656464
92	0x3d728659	0.059210155
93	0xbd7b1602	-0.061300285
94	0xbba3fdf6	-0.0050046397
95	0x3d66efdf	0.056381103
96	0xbcb14e5b	-0.021643808
97	0x3cc3c14f	0.023895888
98	0x3c4bf6be	0.012448965
99	0x3d4fb47c	0.050709233
100	0xbbc96300	-0.006145835
101	0xbd151fbe	-0.036407225
102	0x3dfec713	0.12440314
103	0x3d2b990a	0.041893996
104	0xbc8059f5	-0.015667895
105	0x3db15246	0.086582705
106	0xbd243e5d	-0.040098537
107	0x3dcc9f5c	0.09991333
108	0x3d830438	0.06397289
109	0xbdb4cd8b	-0.08828267
110	0x3c63422b	0.013870756
111	0x3d75069e	0.059820764
112	0xbb3cb53b	-0.0028794545
113	0x3d86809d	0.065675
114	0xbbcf2e5c	-0.006322665
115	0x3ceb1cf6	0.028700333
116	0xbc7b0130	-0.015320107
117	0xbd3a91e7	-0.0455493
118	0x3d709485	0.05873539
119	0xbd3215d2	-0.04347784
120	0xbcb7b7f3	-0.022426581
121	0xbcaad26f	-0.020852296
122	0x3c78cc3a	0.01518541
123	0xbd2c07d8	-0.041999668
124	0xbd090c99	-0.03345928
125	0x3d5642bf	0.052309748
126	0xbd87de9c	-0.06634256
127	0x3d92b83c	0.07164046

dnn/hiddenlayer_0/MatMul f4 [128, 12]
0	0xbe72de89	-0.23717703
1	0x3e403b91	0.18772723
2	0xbdd907ba	-0.10597177
3	0x3d9c2604	0.076244384
4	0xbd6b5c6e	-0.057461195
5	0x3e5a381c	0.21310467
6	0xbdfda4f7	-0.1238498
7	0x3e06748c	0.13130397
8	0xbd977012	-0.073944226
9	0x3d3b8341	0.04577947
10	0xbdeeb7cf	-0.116561525
11	0xbc18cf74	-0.009326804
12	0x3e473633	0.19454269
13	0x3e61d582	0.22054103
14	0xbe700f5e	-0.23443362
15	0x3e2302ab	0.15918986
16	0xbdf92b68	-0.12166482
17	0xbdb5154f	-0.08841955
18	0xbdbf1d43	-0.09331753
19	0xbcf7432b	-0.030183395
20	0x3e0e6d83	0.13908963
21	0x3e47c0b8	0.1950711
22	0x3e328dc6	0.17436895
23	0xbd77f538	-0.060536593
24	0x3cf323d8	0.029680178
25	0xbe04d36b	-0.12971275
26	0xbda5e003	-0.080993675
27	0xbe1ff468	-0.15620577
28	0x3dbf9785	0.09355072
29	0xbdebfb52	-0.11522545
30	0x3d5ed022	0.05439771
31	0xbe09f862	-0.13473657
32	0xbc7db2d2	-0.015484529
33	0x3da0556b	0.07828792
34	0xbddb467d	-0.10706804
35	0xbe1700d8	-0.14746416
36	0xbd501208	-0.050798446
37	0xbde8b3bb	-0.11362406
38	0x3e203f26	0.15649089
39	0xbc7a8edf	-0.015292852
40	0xbda2b3be	-0.07944439
41	0xbc53b2ac	-0.012921017
42	0xbe1a4afa	-0.15067664
43	0xbc39e58e	-0.011346234
44	0xbd109684	-0.035299793
45	0x3e6c1a24	0.23056847
46	0x3e6b0749	0.22951998
47	0xbe93786c	-0.28802812
48	0xbe3b01d5	-0.18262418
49	0x3d4a7fd8	0.049438328
50	0x3de6b257	0.112644844
51	0x3d39a246	0.04532077
52	0x3de37233	0.11105766
53	0x3e0dc2bf	0.13843821
54	0xbe1f46e2	-0.15554383
55	0x3e0f6633	0.1400383
56	0xbcf05e3e	-0.029341813
57	0x3e722cb3	0.23649864
58	0xbe660c1f	-0.22465561
59	0x3e2084d3	0.15675668
60	0x3caa10df	0.020759998
61	0xbdc541e9	-0.09631712
62	0xbd6288b8	-0.055306166
63	0x3a688135	0.0008869351
64	0x3e029afd	0.12754436
65	0xbd21a447	-0.039463308
66	0x3e5de419	0.21669044
67	0xbc12a6c3	-0.008950892
68	0x3d116da9	0.03550497
69	0xbe080cd5	-0.13286145
70	0xbc036091	-0.008018629
71	0x3c02fbd0	0.007994607
72	0x3e67e890	0.2264731
73	0x3dd7360a	0.10508354
74	0x3e3bc9e2	0.18338731
75	0x3dfc703b	0.12326094
76	0x3e151232	0.14557722
77	0xbdddadc5	-0.108241595
78	0xbdf350d1	-0.11880649
79	0xbd9f72aa	-0.07785542
80	0xbce9e8d8	-0.028553411
81	0x3c2c2f22	0.010509284
82	0x3ea4e900	0.32209015
83	0xbe2f24b1	-0.1710384
84	0xbdba3f1c	-0.090940684
85	0x3db864d2	0.09003605
86	0xbe77190e	-0.24130651
87	0x3e2cc5cc	0.16872329
88	0xbc17d1a5	-0.009266292
89	0xbe4fa3f0	-0.20277381
90	0x3e05af10	0.13055062
91	0xbe016ebb	-0.12639897
92	0xbdf7d9f9	-0.12102122
93	0xbdf2538e	-0.11832343
94	0xbc1fdb68	-0.0097569
95	0x3c1e05f7	0.009644977
96	0x3de3e505	0.111276664
97	0xbcc76e96	-0.024344724
98	0xbdc168f5	-0.09443847
99	0xbd21bdda	-0.039487697
100	0x3e28c771	0.16482331
101	0xbe4599de	-0.19296977
102	0x3d1292d8	0.035784572
103	0x3d152304	0.036410347
104	0xbe3adb60	-0.18247747
105	0xbb31b4f4	-0.0027115913
106	0xbcd7cc4f	-0.02634254
107	0x3d95f2cf	0.07321703
108	0xbe6289a1	-0.22122814
109	0xbe23f2bf	-0.16010569
110	0x3e518fcc	0.2046501
111	0xbe0342f2	-0.12818506
112	0xbe3fbc5d	-0.18724199
113	0xbe1bd165	-0.15216596
114	0x3d8a5d5f	0.067560904
115	0xbdcb8c7f	-0.09938907
116	0xbd6e4d58	-0.05817923
117	0xbdf56400	-0.11981964
118	0x3d31f31f	0.04344475
119	0x3cf27634	0.02959738
120	0x3dafc3be	0.08582257
121	0xbdc1b7da	-0.09458895
122	0x3df24214	0.1182901
123	0x3d58a3e9	0.052890692
124	0xbd53bb0e	-0.05169206
125	0x3e44b5f5	0.19210036
126	0xbe987bd3	-0.2978197
127	0x3da225aa	0.0791734
128	0x3d9a1f0b	0.07525452
129	0xbdd1a711	-0.102369435
130	0xbe232ee6	-0.15935859
131	0xbdd5e253	-0.104435585
132	0x3e344404	0.17604071
133	0xbdbb008d	-0.091309644
134	0xbe0b3bd8	-0.13597047
135	0xbda0b98f	-0.078478925
136	0xbc48231b	-0.012215401
137	0x3d471106	0.04860022
138	0x3e56bca0	0.20970392
139	0xbc4419c0	-0.01196903
140	0x3e2008ed	0.15628405
141	0x3e0fce68	0.14043581
142	0x3d4132d9	0.047167633
143	0xbd13a97d	-0.03605031
144	0x3de7a959	0.113115974
145	0x3d9579e9	0.07298643
146	0x3d695215	0.056963045
147	0x3d199264	0.037493125
148	0x3d90ff65	0.07079963
149	0xbd16bb9a	-0.036800005
150	0xbe903cb8	-0.28171325
151	0x3ddc58ff	0.10759162
152	0x3dd22968	0.10261804
153	0x3e57a3bc	0.21058553
154	0x3cc493bf	0.023996232
155	0x3e23d524	0.15999275
156	0x3e4a163e	0.19735047
157	0xbd32a6c6	-0.04361608
158	0x3d62bbc8	0.055354863
159	0x3d5a22c1	0.0532558
160	0xbdab71df	-0.083713286
161	0xbe193f9a	-0.14965668
162	0xbddd1c28	-0.10796386
163	0xbe47520a	-0.19464889
164	0x3dee931c	0.11649153
165	0xbe16db0c	-0.14731997
166	0xbdb76ef4	-0.089567095
167	0x3dc276d9	0.09495325
168	0xbdac55ef	-0.08414828
169	0x3d98177e	0.07426356
170	0x3e2e4548	0.17018616
171	0xbe0ff83f	-0.14059542
172	0x3dc24204	0.09485248
173	0xbd06d541	-0.03291822
174	0xbd95d1c6	-0.07315402
175	0xbe13c800	-0.14431763
176	0xbe025a66	-0.12729797
177	0xbe2bb3e3	-0.1676784
178	0xbd896e7f	-0.067105286
179	0xbe4ff61c	-0.20308727
180	0x3d7f7da3	0.062375676
181	0x3ddbc09d	0.107300974
182	0x3e0d9008	0.13824475
183	0xbd560a28	-0.05225578
184	0xbddeb341	-0.10874034
185	0xbe110f82	-0.14166072
186	0xbe89e1a7	-0.26929972
187	0xbd7c0bc0	-0.061534643
188	0x3e41c213	0.1892169
189	0x3ce3ccb7	0.027807577
190	0xbb66b6e0	-0.0035204217
191	0xbdd40134	-0.10351792
192	0x3da0c0b2	0.07849254
193	0x3e7f7922	0.24948552
194	0xbd8243c8	-0.063605845
195	0x3e062630	0.13100505
196	0xbe0c8049	-0.13720812
197	0x3da725ee	0.081615314
198	0xbe2bf352	-0.16792038
199	0xbcd88a2d	-0.026433075
200	0x3dfa03ae	0.12207733
201	0xbe52cf0c	-0.20586795
202	0xbe10a759	-0.14126338
203	0xbcaefc34	-0.021360494
204	0x3c426c2f	0.011866613
205	0xbd9ba1cc	-0.0759922
206	0x3de2a9b8	0.110675275
207	0xbe345b8d	-0.17613049
208	0xbe6d5119	-0.23175468
209	0x3ccba98f	0.024861125
210	0x3dcedb17	0.10100382
211	0xbe41904e	-0.18902704
212	0x3e2dfbef	0.16990636
213	0xbdd89d59	-0.10576887
214	0xbd72e22b	-0.05929772
215	0x3d3c24b3	0.045933437
216	0x3e1d154f	0.1534016
217	0xbe364dbb	-0.1780309
218	0xbd232aa4	-0.039835587
219	0x3dd52a6f	0.10408484
220	0x3e3c238f	0.1837294
221	0x3b601f35	0.0034198288
222	0xbe35deaa	-0.17760721
223	0x3e46367e	0.19356725
224	0xbe254ec9	-0.16143335
225	0xbd66bf52	-0.0563348
226	0xbdca3580	-0.098734856
227	0x3cbdef6b	0.023185452
228	0xbe38c868	-0.18045199
229	0xbddaf432	-0.10691108
230	0x3d9a5529	0.07535774
231	0xbe149a2e	-0.1451194
232	0x3dbbef9a	0.0917656
233	0x3c94c135	0.018158535
234	0x3d7f641d	0.062351335
235	0x3dd861ab	0.10565504
236	0xbcf694dd	-0.03010028
237	0x3e66a255	0.22522862
238	0xbe300327	-0.17188703
239	0xbda44089	-0.080201216
240	0xbdfed4bd	-0.1244292
241	0x3d4859ea	0.048913874
242	0x3dd8bec0	0.10583258
243	0xbc914e07	-0.017737402
244	0x3da690f3	0.081331156
245	0xbd18ada6	-0.03727498
246	0xbc94c259	-0.018159078
247	0x3bb86dd5	0.0056283274
248	0xbe333b3d	-0.17503066
249	0xbe3ebdcc	-0.1862709
250	0xbc2bab14	-0.0104778
251	0x3e1617d5	0.14657529
252	0x3e0cdc39	0.13755883
253	0x3c29857f	0.010346769
254	0x3dc35160	0.095370054
255	0x3e13f5a4	0.14449173

dnn/hiddenlayer_1/MatMul f4 [64, 128]
0	0xbe22b81d	-0.15890546
1	0x3de3df8a	0.11126621
2	0x3df1823d	0.11792419
3	0x3e06cbef	0.13163732
4	0x3d7d82ff	0.061892506
5	0xbd2a3858	-0.04155764
6	0x3cf56214	0.029953994
7	0xbd94bfe1	-0.072631605
8	0xbc8b911f	-0.017036973
9	0x3d9c79e2	0.07640435
10	0xbe34e59c	-0.17665714
11	0x3e227086	0.15863237
12	0x3d6314bc	0.055439696
13	0xbd662996	-0.056192003
14	0xbcb9fc69	-0.022703366
15	0x3ddc381d	0.1075289
16	0xbdd07fb2	-0.10180606
17	0x3e33c5b8	0.17555892
18	0x3d57fae4	0.052729502
19	0x3d07a254	0.033113793
20	0x3de09e91	0.10967744
21	0x3c530e25	0.01288179
22	0x3da94bb0	0.08266389
23	0x3d0e345e	0.03471791
24	0x3ceb0a06	0.028691303
25	0x3e267deb	0.16258971
26	0x3dbc5c28	0.09197265
27	0xbd152692	-0.036413737
28	0xbe4d6c1a	-0.20060769
29	0xbe06f27a	-0.13178435
30	0x3d2f40e5	0.042786498
31	0x3d5b1693	0.053488325
32	0x3e1a2ad7	0.15055405
33	0x3d9c6c6b	0.076378666
34	0x3cebef18	0.028800532
35	0x3e0fa33d	0.14027114
36	0x3e43e5d6	0.19130644
37	0x3dd94d0d	0.106103994
38	0x3e31084e	0.17288324
39	0xbe22cd1f	-0.1589856
40	0x3e0596ae	0.13045761
41	0x3d51a8ee	0.051186495
42	0xbddee47b	-0.10883423
43	0x3e049fe9	0.12951626
44	0xbdca0a0c	-0.098651975
45	0x3e1a923d	0.15094848
46	0xbd3113a4	-0.04323162
47	0xbe1845a5	-0.14870317
48	0xbe3653f4	-0.17805463
49	0xbc95b76e	-0.018275943
50	0x3deba1cb	0.11505469
51	0xbde0aa74	-0.10970011
52	0xbd53da50	-0.05172187
53	0x3d856c03	0.06514742
54	0xbc8c06cd	-0.017093087
55	0x3dc4e40c	0.09613809
56	0xbb84b2fc	-0.004049657
57	0xbdb2f702	-0.08738519
58	0xbdab9fec	-0.08380112
59	0x3e07ec78	0.132738
60	0xbe02f872	-0.12790087
61	0x3c5a7842	0.013334336
62	0xbd287bfe	-0.041133873
63	0x3e1239fd	0.14279933
64	0x3da7e480	0.0819788
65	0x3e14fd0b	0.14549653
66	0x3dceb317	0.100927524
67	0x3d54ee61	0.05198515
68	0xbe2366ad	-0.15957136
69	0xbda5c3c3	-0.08093979
70	0xbe1290fb	-0.14313118
71	0x3ce6e26f	0.028184144
72	0xbd346fd5	-0.044051964
73	0xbe0b610e	-0.13611242
74	0xbe117d7a	-0.14208022
75	0xbe0963ba	-0.13416949
76	0xbe16d84a	-0.14730945
77	0x3e313fc7	0.17309485
78	0x3df255f0	0.118327975
79	0xbd833e39	-0.064083524
80	0x3d40cade	0.04706847
81	0x3ddfa91c	0.10920927
82	0xbdaa1b6d	-0.08306012
83	0xbe09b7c2	-0.13449004
84	0xbe03b3e8	-0.12861598
85	0x3dba3c47	0.09093528
86	0x3e2d2678	0.16909206
87	0x3e312d09	0.17302336
88	0x3e3ffa8a	0.18747917
89	0x3de27221	0.110569246
90	0xbd8da550	-0.069162965
91	0xbc8e1e70	-0.017348498
92	0x3e0064e8	0.12538493
93	0x3c091920	0.008367807
94	0x3ca7685b	0.020435503
95	0xbe2056d1	-0.15658118
96	0x3cbc96b6	0.023021083
97	0x3dee4324	0.116339
98	0x3df4be27	0.11950331
99	0xbdd3b881	-0.10337926
100	0xbdbe6685	-0.09296898
101	0x3cbcf52c	0.023066126
102	0x3cc73134	0.024315454
103	0xbe1734ce	-0.14766237
104	0xbe0f6dd7	-0.14006744
105	0xbda8e451	-0.08246673
106	0xbde8ed04	-0.11373332
107	0xbd1cee76	-0.03831335
108	0x3e3d743b	0.1850137
109	0xbe439b23	-0.19102149
110	0x3b0eca0a	0.0021787905
111	0xbd655075	-0.055984933
112	0x3d2c90c7	0.042130258
113	0x3e3d30ed	0.18475695
114	0xbd6277c0	-0.055289984
115	0xb98ed898	-0.00027245726
116	0xbde857a9	-0.11344845
117	0x3e48876e	0.19582912
118	0xbcda9833	-0.026683902
119	0xbd080b05	-0.033213634
120	0x3e070019	0.13183631
121	0xbd99df68	-0.075133145
122	0xbc0134cf	-0.007886126
123	0x3cae081d	0.021244103
124	0x3e1dfe93	0.15429144
125	0xbddddf68	-0.10833627
126	0x3d92695c	0.07149002
127	0xbd87b6d8	-0.066266716
128	0x3e094754	0.13406116
129	0x3e0f2767	0.13979875
130	0xbe042cf5	-0.12907775
131	0xbe400f4f	-0.1875584
132	0xbe10ad75	-0.14128669
133	0xbe009058	-0.12555063
134	0xbdb9a4ef	-0.09064662
135	0xbc865e9c	-0.016402535
136	0xbd427f10	-0.047484457
137	0x3dde0f44	0.108427554
138	0x3df52481	0.11969853
139	0xbd505fa1	-0.05087245
140	0xbdb7830f	-0.08960544
141	0xbe056a43	-0.13028817
142	0xbdd855be	-0.10563229
143	0xbb825fa1	-0.003978685
144	0x3e166860	0.14688253
145	0x3c6e802a	0.014556924
146	0xbdab729b	-0.08371469
147	0xbdbc0362	-0.09180333
148	0xbdef2c77	-0.11678403
149	0xbe02ce49	-0.12774004
150	0x3db0a210	0.08624661
151	0x3c9cf91e	0.019161757
152	0x3dc7bd5b	0.097529136
153	0xbda02458	-0.07819432
154	0x3e281caa	0.16417184
155	0xbd5dca2d	-0.054147888
156	0x3e10faa3	0.1415811
157	0xbe461311	-0.19343211
158	0x3e2e583f	0.1702585
159	0xbdab0b7a	-0.08351798
160	0x3d48c080	0.049011707
161	0xbde018ad	-0.109422065
162	0x3d553ded	0.05206101
163	0x3ce4c7a5	0.02792723
164	0xbd89859a	-0.067149356
165	0x3d003c6a	0.031307615
166	0x3e497258	0.19672525
167	0x3cffdfff	0.03123474
168	0xbdc09dc6	-0.09405093
169	0x3d049b54	0.032374695
170	0xbe003562	-0.12520364
171	0x3e6073a6	0.21919116
172	0x3dd2ff6c	0.10302624
173	0x3dc099d5	0.09404341
174	0x3df6b415	0.12046067
175	0xbd62850e	-0.055302672
176	0xbd89d82b	-0.06730684
177	0xbd811f63	-0.06304815
178	0x3d6f7b0e	0.058466963
179	0x3dfdba4f	0.12389051
180	0x3d106313	0.035250735
181	0xbd92db2a	-0.071707085
182	0xbdb54894	-0.08851734
183	0x3d1ac621	0.037786607
184	0xbd80248f	-0.06256973
185	0x3debf38c	0.11521062
186	0xbdf7e4d9	-0.12104196
187	0x3cb67722	0.022273604
188	0x3e1176b5	0.1420544
189	0xbe1c0efa	-0.15240088
190	0x3c92cf78	0.017921194
191	0xbe07be70	-0.1325624
192	0xbc6c1932	-0.014410304
193	0xbe00ddec	-0.12584656
194	0x3e1c7cc3	0.15281968
195	0x3dbb0efc	0.091337174
196	0xbd55bc11	-0.052181307
197	0x3c96a7a5	0.018390486
198	0x3e0eeb32	0.13956907
199	0xbdb1fefb	-0.08691212
200	0x3e21fc8c	0.15818995
201	0x3a654ae0	0.0008746814
202	0xbddb2013	-0.10699477
203	0xbbe18818	-0.0068826787
204	0x3e33fb5c	0.17576355
205	0xbddc0525	-0.10743169
206	0x3ab81dd7	0.0014046979
207	0xbb14e72f	-0.0022720804
208	0x3e31e1f3	0.17371349
209	0xbdf190ca	-0.117951944
210	0xbe2b8764	-0.16750866
211	0xbe25413a	-0.16138163
212	0x3dbaa809	0.091140814
213	0x3d593873	0.05303235
214	0xbe159137	-0.14606176
215	0xbc0b8ae4	-0.008517001
216	0xbd933c74	-0.07189265
217	0x3e244236	0.16040882
218	0xbe003003	-0.12518315
219	0xbde3a719	-0.11115856
220	0x3e33883f	0.17532443
221	0x3d5f71bc	0.054551825
222	0x3d187fae	0.03723114
223	0x3d5efa8d	0.054438163
224	0x3e05f3e1	0.13081314
225	0x3e15c3ad	0.14625426
226	0xbe43a76c	-0.19106835
227	0x3dd0df8b	0.101988874
228	0xbc28f9f2	-0.010313498
229	0x3e17ac32	0.14811781
230	0xbe0333cc	-0.12812728
231	0xbe1d3a90	-0.15354371
232	0x3df03dd9	0.117305465
233	0x3bed7ed9	0.0072477874
234	0x3ce4f4ca	0.027948756
235	0x3e035a56	0.12827429
236	0xbde9fffe	-0.1142578
237	0x3da892b6	0.08231108
238	0xbe1917a5	-0.14950426
239	0x3d09e599	0.033666227
240	0x3e087024	0.13324028
241	0xbcacfe84	-0.021117456
242	0xbe429d53	-0.19005327
243	0x3db3dc6d	0.08782277
244	0xbe2840e4	-0.16431004
245	0xbd20280c	-0.03910069
246	0x3e298efd	0.16558452
247	0x3ded977b	0.11601158
248	0xbe388020	-0.18017626
249	0x3d7ff06f	0.062485155
250	0xbd2d7d40	-0.042355776
251	0x3cc833c6	0.02443875
252	0xbdb63465	-0.08896712
253	0x3d8b0a3b	0.06789061
254	0xbc3ebe3c	-0.011642035
255	0xbde5fcaa	-0.112298325

dnn/logits/MatMul f4 [1, 64]
0	0xbe3b42e9	-0.18287243
1	0x3e1e3931	0.15451504
2	0x3da18137	0.07885974
3	0x3e9d7c56	0.30758923
4	0x3e877b82	0.26461416
5	0xbe6c883f	-0.23098849
6	0x3eac36e7	0.33635637
7	0xbe989fba	-0.29809362
8	0xbe79f4ec	-0.24409837
9	0x3ec3dc16	0.3825385
10	0x3de37774	0.11106768
11	0xbc09385f	-0.008375256
12	0xbe8fc9d0	-0.28083658
13	0xbea05003	-0.31311044
14	0x3e8fe5d8	0.28105044
15	0xbe265eef	-0.16247152
16	0x3e90f447	0.2831137
17	0x3dc4d2cf	0.09610521
18	0x3d09fe0f	0.033689555
19	0x3e93c4e2	0.28861147
20	0xb8939ca0	-7.03868e-05
21	0x3ed5594a	0.41669685
22	0x3ec1fb1a	0.37886888
23	0x3e680eda	0.22661915
24	0xbe72da70	-0.2371614
25	0x3daf2c69	0.085533924
26	0x3ed5b051	0.4173608
27	0x3d8550c9	0.06509549
28	0x3f249a90	0.64298344
29	0x3de0865c	0.10963127
30	0xbe58ca9e	-0.21171042
31	0xbe2b6cab	-0.16740672
32	0xbe87cd34	-0.26523745
33	0xbd367bde	-0.044551723
34	0xbdcaa8dc	-0.098954886
35	0xbea6e4ff	-0.32596585
36	0x3ea4d54a	0.32193977
37	0xbec7454c	-0.38920057
38	0x3e30671d	0.17226835
39	0x3d822791	0.06355203
40	0x3ddeb8ce	0.108750924
41	0xbdda561b	-0.106609546
42	0x3e3ce0d9	0.18445148
43	0x3deaff79	0.11474509
44	0x3e30b0cb	0.17254941
45	0xbebdc84f	-0.37066886
46	0xbe90889f	-0.28229234
47	0xbea1af42	-0.31579024
48	0xbe0f5c15	-0.1399997
49	0x3e1544fa	0.14577094
50	0xbcb3a493	-0.021929061
51	0x3e00c548	0.12575257
52	0xbe996467	-0.29959413
53	0xbeaf643e	-0.34256166
54	0x3e64ef5e	0.22356936
55	0x3df17adc	0.11791012
56	0x3da74564	0.08167532
57	0xbe1ee28e	-0.15516111
58	0xbe14a999	-0.14517821
59	0x3e8b6b73	0.27230415
60	0x3e263852	0.16232422
61	0x3e555d8e	0.2083647
62	0xbe01a8dd	-0.12662072
63	0x3dd66a98	0.1046955
